…
      - DHX9
      - EMC1
      - SSR1
      - PUM1
      - CLTC
      - PRKRA
      - KRR1
      - OCIAD1
      - CDC73
      - SLC2A1
      - HIF1A
      - PKM
      - CADM1
      - EPCAM
      - ALCAM
      - PTK7
  data_directory: Data/
  genomic_type: tpm
  n_threads: 16
  project_ids:
  - TCGA-BRCA
  - TCGA-LUAD
  - TCGA-COAD
  target_type: overall_survival
datasets_manager:
  TCGA_BLC:
    batch_size: 128
    num_folds: 4
    num_workers: 4
    test_split: 0.2
    train: true
  type: TCGA_Balanced_Datasets_Manager
max_epochs: 50
model.clf: "Model Structure:\nTask_Classifier(\n  (task_embedding): Embedding(3, 8)\n\
  \  (combine_layer): Sequential(\n    (0): Linear(in_features=16, out_features=8,\
  \ bias=True)\n    (1): BatchNorm1d(8, eps=1e-05, momentum=0.1, affine=True, track_running_stats=True)\n\
  \    (2): Softsign()\n  )\n  (classifier): Sequential(\n    (0): Linear(in_features=8,\
  \ out_features=8, bias=True)\n    (1): BatchNorm1d(8, eps=1e-05, momentum=0.1, affine=True,\
  \ track_running_stats=True)\n    (2): Softsign()\n    (3): Linear(in_features=8,\
  \ out_features=1, bias=True)\n  )\n)\nTrainable parameters: 273"
model.feat_ext: "Model Structure:\nFeature_Extractor(\n  (genomic_feature_extractor):\
  \ Genomic_Feature_Extractor(\n    (genomic_feature_extractor): Sequential(\n   \
  \   (0): Linear(in_features=20, out_features=8, bias=True)\n      (1): BatchNorm1d(8,\
  \ eps=1e-05, momentum=0.1, affine=True, track_running_stats=True)\n      (2): Linear(in_features=8,\
  \ out_features=8, bias=True)\n      (3): BatchNorm1d(8, eps=1e-05, momentum=0.1,\
  \ affine=True, track_running_stats=True)\n      (4): Linear(in_features=8, out_features=8,\
  \ bias=True)\n      (5): BatchNorm1d(8, eps=1e-05, momentum=0.1, affine=True, track_running_stats=True)\n\
  \    )\n  )\n  (clinical_feature_extractor): Clinical_Feature_Extractor(\n    (clinical_categorical_embedding):\
  \ Embedding(11, 5)\n    (clinical_feature_encoder): Sequential(\n      (0): Linear(in_features=8,\
  \ out_features=8, bias=True)\n      (1): BatchNorm1d(8, eps=1e-05, momentum=0.1,\
  \ affine=True, track_running_stats=True)\n      (2): Linear(in_features=8, out_features=8,\
  \ bias=True)\n      (3): BatchNorm1d(8, eps=1e-05, momentum=0.1, affine=True, track_running_stats=True)\n\
  \      (4): Linear(in_features=8, out_features=8, bias=True)\n      (5): BatchNorm1d(8,\
  \ eps=1e-05, momentum=0.1, affine=True, track_running_stats=True)\n    )\n  )\n\
  )\nTrainable parameters: 679"
models:
  Feature_Extractor:
    clinical_categorical_dim: 11
    clinical_embedding_dim: 8
    clinical_numerical_dim: 3
    genomic_dim: 20
    genomic_embedding_dim: 8
  Task_Classifier:
    clinical_embedding_dim: 8
    genomic_embedding_dim: 8
    output_dim: 1
    task_dim: 3
…
